…
__________________________________________________________________________________________________
Layer (type)                    Output Shape         Param #     Connected to
==================================================================================================
model2_input (InputLayer)       [(None, 3)]          0
__________________________________________________________________________________________________
model1_input (InputLayer)       [(None, 3)]          0
__________________________________________________________________________________________________
model2_layer1 (Dense)           (None, 10)           40          model2_input[0][0]
__________________________________________________________________________________________________
model1_layer1 (Dense)           (None, 11)           44          model1_input[0][0]
__________________________________________________________________________________________________
model2_layer2 (Dense)           (None, 4)            44          model2_layer1[0][0]
__________________________________________________________________________________________________
model1_layer2 (Dense)           (None, 6)            72          model1_layer1[0][0]
__________________________________________________________________________________________________
model2_layer3 (Dense)           (None, 3)            15          model2_layer2[0][0]
__________________________________________________________________________________________________
cat_start (Concatenate)         (None, 9)            0           model1_layer2[0][0]
                                                                 model2_layer3[0][0]
__________________________________________________________________________________________________
cat_layer1 (Dense)              (None, 15)           150         cat_start[0][0]
__________________________________________________________________________________________________
cat_layer2 (Dense)              (None, 10)           160         cat_layer1[0][0]
__________________________________________________________________________________________________
cat_layer3 (Dense)              (None, 12)           132         cat_layer2[0][0]
__________________________________________________________________________________________________
out2_layer1 (Dense)             (None, 15)           195         cat_layer3[0][0]
__________________________________________________________________________________________________
out1_layer1 (Dense)             (None, 30)           390         cat_layer3[0][0]
__________________________________________________________________________________________________
out2_layer2 (Dense)             (None, 7)            112         out2_layer1[0][0]
__________________________________________________________________________________________________
out1_layer2 (Dense)             (None, 7)            217         out1_layer1[0][0]
__________________________________________________________________________________________________
out2_layer3 (Dense)             (None, 9)            72          out2_layer2[0][0]
__________________________________________________________________________________________________
out1_layer3 (Dense)             (None, 3)            24          out1_layer2[0][0]
__________________________________________________________________________________________________
out2_layer4 (Dense)             (None, 3)            30          out2_layer3[0][0]
==================================================================================================
Total params: 1,697
Trainable params: 1,697
Non-trainable params: 0
__________________________________________________________________________________________________

2. ensemble 2에 대한 summary (x:y = 2:1)
Model: "model"
__________________________________________________________________________________________________
Layer (type)                    Output Shape         Param #     Connected to
==================================================================================================
input_2 (InputLayer)            [(None, 3)]          0
__________________________________________________________________________________________________
input_1 (InputLayer)            [(None, 3)]          0
__________________________________________________________________________________________________
dense_2 (Dense)                 (None, 10)           40          input_2[0][0]
__________________________________________________________________________________________________
dense (Dense)                   (None, 10)           40          input_1[0][0]
__________________________________________________________________________________________________
dense_3 (Dense)                 (None, 5)            55          dense_2[0][0]
__________________________________________________________________________________________________
dense_1 (Dense)                 (None, 5)            55          dense[0][0]
__________________________________________________________________________________________________
dense_4 (Dense)                 (None, 5)            30          dense_3[0][0]
__________________________________________________________________________________________________
concatenate (Concatenate)       (None, 10)           0           dense_1[0][0]
                                                                 dense_4[0][0]
__________________________________________________________________________________________________
dense_5 (Dense)                 (None, 30)           330         concatenate[0][0]
__________________________________________________________________________________________________
dense_6 (Dense)                 (None, 7)            217         dense_5[0][0]
__________________________________________________________________________________________________
dense_7 (Dense)                 (None, 3)            24          dense_6[0][0]
==================================================================================================
Total params: 791
Trainable params: 791
Non-trainable params: 0
__________________________________________________________________________________________________

3. ensemble 3에 대한 summary (x:y = 2:3)

Model: "model"
__________________________________________________________________________________________________
Layer (type)                    Output Shape         Param #     Connected to
==================================================================================================
input_2 (InputLayer)            [(None, 3)]          0
__________________________________________________________________________________________________
input_1 (InputLayer)            [(None, 3)]          0
__________________________________________________________________________________________________
dense_2 (Dense)                 (None, 10)           40          input_2[0][0]
__________________________________________________________________________________________________
dense (Dense)                   (None, 10)           40          input_1[0][0]
__________________________________________________________________________________________________
dense_3 (Dense)                 (None, 5)            55          dense_2[0][0]
__________________________________________________________________________________________________
dense_1 (Dense)                 (None, 5)            55          dense[0][0]
__________________________________________________________________________________________________
dense_4 (Dense)                 (None, 5)            30          dense_3[0][0]
__________________________________________________________________________________________________
concatenate (Concatenate)       (None, 10)           0           dense_1[0][0]
                                                                 dense_4[0][0]
__________________________________________________________________________________________________
dense_5 (Dense)                 (None, 30)           330         concatenate[0][0]
__________________________________________________________________________________________________
dense_6 (Dense)                 (None, 10)           310         dense_5[0][0]
__________________________________________________________________________________________________
dense_7 (Dense)                 (None, 10)           110         dense_6[0][0]
__________________________________________________________________________________________________
out2_layer1 (Dense)             (None, 15)           165         dense_7[0][0]
__________________________________________________________________________________________________
out1_layer1 (Dense)             (None, 30)           330         dense_7[0][0]
__________________________________________________________________________________________________
out2_layer2 (Dense)             (None, 7)            112         out2_layer1[0][0]
__________________________________________________________________________________________________
out1_layer2 (Dense)             (None, 7)            217         out1_layer1[0][0]
__________________________________________________________________________________________________
out2_layer3 (Dense)             (None, 7)            56          out2_layer2[0][0]
__________________________________________________________________________________________________
out3_layer1 (Dense)             (None, 10)           110         dense_7[0][0]
__________________________________________________________________________________________________
out1_layer3 (Dense)             (None, 3)            24          out1_layer2[0][0]
__________________________________________________________________________________________________
out2_layer4 (Dense)             (None, 3)            24          out2_layer3[0][0]
__________________________________________________________________________________________________
out3_layer2 (Dense)             (None, 3)            33          out3_layer1[0][0]
==================================================================================================
Total params: 2,041
Trainable params: 2,041
Non-trainable params: 0
__________________________________________________________________________________________________

4. ensemble 4에 대한 summary (x: y = 1:2)

Model: "model"
__________________________________________________________________________________________________
Layer (type)                    Output Shape         Param #     Connected to
==================================================================================================
input_1 (InputLayer)            [(None, 3)]          0
__________________________________________________________________________________________________
dense (Dense)                   (None, 10)           40          input_1[0][0]
__________________________________________________________________________________________________
dense_1 (Dense)                 (None, 10)           110         dense[0][0]
__________________________________________________________________________________________________
dense_2 (Dense)                 (None, 10)           110         dense_1[0][0]
__________________________________________________________________________________________________
dense_3 (Dense)                 (None, 10)           110         dense_2[0][0]
__________________________________________________________________________________________________
dense_4 (Dense)                 (None, 30)           330         dense_3[0][0]
__________________________________________________________________________________________________
dense_8 (Dense)                 (None, 15)           165         dense_3[0][0]
__________________________________________________________________________________________________
dense_5 (Dense)                 (None, 30)           930         dense_4[0][0]
__________________________________________________________________________________________________
dense_9 (Dense)                 (None, 30)           480         dense_8[0][0]
__________________________________________________________________________________________________
dense_6 (Dense)                 (None, 30)           930         dense_5[0][0]
__________________________________________________________________________________________________
dense_10 (Dense)                (None, 30)           930         dense_9[0][0]
__________________________________________________________________________________________________
dense_7 (Dense)                 (None, 3)            93          dense_6[0][0]
__________________________________________________________________________________________________
dense_11 (Dense)                (None, 3)            93          dense_10[0][0]
==================================================================================================
Total params: 4,321
Trainable params: 4,321
Non-trainable params: 0
__________________________________________________________________________________________________



