…
Out[26]: 
   x   y
0  1   3
1  9  99
2  3   5

=====
삼성전자 주가 날짜 뒤바꾸기
df[::-1]


keras54_conv1d_01_lstm.py

모델 정리: 
lstm과 마찬가지로 input shape이 2차원이다.
주어진 데이터가 양이 많지 않기 때문에 많은 filter를 할 수 없다고 생각되서 6 정도가 좋다고 판단되었다.
또한 주어진 데이터가 3을 기준으로 반복되는 형태라서 그의 배수인 3을 kernel_size로 정하였다
데이터의 사이즈가 크지 않기 때문에 maxpool도 할 필요성을 느끼지 못하였다.
바로 Dense 레이어에 넘겨주었고, Dropout 해본 결과가 더 나아서 추가하였다.

Model: "sequential"
_________________________________________________________________
Layer (type)                 Output Shape              Param #
=================================================================
conv1d (Conv1D)              (None, 1, 6)              24
_________________________________________________________________
dense (Dense)                (None, 1, 16)             112
_________________________________________________________________
dropout (Dropout)            (None, 1, 16)             0
_________________________________________________________________
dense_1 (Dense)              (None, 1, 8)              136
_________________________________________________________________
dense_2 (Dense)              (None, 1, 1)              9
=================================================================
Total params: 281
Trainable params: 281
Non-trainable params: 0
_________________________________________________________________